…
[03/12 22:37:34] svhn-local-l1-vgg16 INFO: sl_lr: 0.01
[03/12 22:37:34] svhn-local-l1-vgg16 INFO: sl_lr_decay_milestones: 60,80
[03/12 22:37:34] svhn-local-l1-vgg16 INFO: sl_reg_warmup: 0
[03/12 22:37:34] svhn-local-l1-vgg16 INFO: sl_restore: None
[03/12 22:37:34] svhn-local-l1-vgg16 INFO: iterative_steps: 400
[03/12 22:37:34] svhn-local-l1-vgg16 INFO: logger: <Logger svhn-local-l1-vgg16 (DEBUG)>
[03/12 22:37:34] svhn-local-l1-vgg16 INFO: device: cuda
[03/12 22:37:34] svhn-local-l1-vgg16 INFO: num_classes: 10
[03/12 22:38:16] svhn-local-l1-vgg16 INFO: Pruning...
[03/12 22:38:22] svhn-local-l1-vgg16 INFO: VGG(
  (block0): Sequential(
    (0): Conv2d(3, 45, kernel_size=(3, 3), stride=(1, 1), padding=(1, 1))
    (1): BatchNorm2d(45, eps=1e-05, momentum=0.1, affine=True, track_running_stats=True)
    (2): ReLU(inplace=True)
    (3): Conv2d(45, 45, kernel_size=(3, 3), stride=(1, 1), padding=(1, 1))
    (4): BatchNorm2d(45, eps=1e-05, momentum=0.1, affine=True, track_running_stats=True)
  )
  (block1): Sequential(
    (0): Conv2d(45, 90, kernel_size=(3, 3), stride=(1, 1), padding=(1, 1))
    (1): BatchNorm2d(90, eps=1e-05, momentum=0.1, affine=True, track_running_stats=True)
    (2): ReLU(inplace=True)
    (3): Conv2d(90, 90, kernel_size=(3, 3), stride=(1, 1), padding=(1, 1))
    (4): BatchNorm2d(90, eps=1e-05, momentum=0.1, affine=True, track_running_stats=True)
  )
  (block2): Sequential(
    (0): Conv2d(90, 181, kernel_size=(3, 3), stride=(1, 1), padding=(1, 1))
    (1): BatchNorm2d(181, eps=1e-05, momentum=0.1, affine=True, track_running_stats=True)
    (2): ReLU(inplace=True)
    (3): Conv2d(181, 181, kernel_size=(3, 3), stride=(1, 1), padding=(1, 1))
    (4): BatchNorm2d(181, eps=1e-05, momentum=0.1, affine=True, track_running_stats=True)
    (5): ReLU(inplace=True)
    (6): Conv2d(181, 181, kernel_size=(3, 3), stride=(1, 1), padding=(1, 1))
    (7): BatchNorm2d(181, eps=1e-05, momentum=0.1, affine=True, track_running_stats=True)
  )
  (block3): Sequential(
    (0): Conv2d(181, 362, kernel_size=(3, 3), stride=(1, 1), padding=(1, 1))
    (1): BatchNorm2d(362, eps=1e-05, momentum=0.1, affine=True, track_running_stats=True)
    (2): ReLU(inplace=True)
    (3): Conv2d(362, 362, kernel_size=(3, 3), stride=(1, 1), padding=(1, 1))
    (4): BatchNorm2d(362, eps=1e-05, momentum=0.1, affine=True, track_running_stats=True)
    (5): ReLU(inplace=True)
    (6): Conv2d(362, 362, kernel_size=(3, 3), stride=(1, 1), padding=(1, 1))
    (7): BatchNorm2d(362, eps=1e-05, momentum=0.1, affine=True, track_running_stats=True)
  )
  (block4): Sequential(
    (0): Conv2d(362, 362, kernel_size=(3, 3), stride=(1, 1), padding=(1, 1))
    (1): BatchNorm2d(362, eps=1e-05, momentum=0.1, affine=True, track_running_stats=True)
    (2): ReLU(inplace=True)
    (3): Conv2d(362, 362, kernel_size=(3, 3), stride=(1, 1), padding=(1, 1))
    (4): BatchNorm2d(362, eps=1e-05, momentum=0.1, affine=True, track_running_stats=True)
    (5): ReLU(inplace=True)
    (6): Conv2d(362, 362, kernel_size=(3, 3), stride=(1, 1), padding=(1, 1))
    (7): BatchNorm2d(362, eps=1e-05, momentum=0.1, affine=True, track_running_stats=True)
  )
  (pool0): MaxPool2d(kernel_size=2, stride=2, padding=0, dilation=1, ceil_mode=False)
  (pool1): MaxPool2d(kernel_size=2, stride=2, padding=0, dilation=1, ceil_mode=False)
  (pool2): MaxPool2d(kernel_size=2, stride=2, padding=0, dilation=1, ceil_mode=False)
  (pool3): MaxPool2d(kernel_size=2, stride=2, padding=0, dilation=1, ceil_mode=False)
  (pool4): AdaptiveAvgPool2d(output_size=(1, 1))
  (classifier): Linear(in_features=362, out_features=10, bias=True)
)
[03/12 22:38:58] svhn-local-l1-vgg16 INFO: Params: 14.73 M => 7.36 M (50.00%)
[03/12 22:38:58] svhn-local-l1-vgg16 INFO: FLOPs: 19565.84 M => 9782.16 M (50.00%, 2.00X )
[03/12 22:38:58] svhn-local-l1-vgg16 INFO: Acc: 0.0638 => 0.0614
[03/12 22:38:58] svhn-local-l1-vgg16 INFO: Val Loss: 2.3034 => 2.3027
[03/12 22:38:58] svhn-local-l1-vgg16 INFO: Finetuning...
…
