…
[03/12 22:29:21] emnist-local-l1-vgg16 INFO: sl_lr_decay_milestones: 60,80
[03/12 22:29:21] emnist-local-l1-vgg16 INFO: sl_reg_warmup: 0
[03/12 22:29:21] emnist-local-l1-vgg16 INFO: sl_restore: None
[03/12 22:29:21] emnist-local-l1-vgg16 INFO: iterative_steps: 400
[03/12 22:29:21] emnist-local-l1-vgg16 INFO: logger: <Logger emnist-local-l1-vgg16 (DEBUG)>
[03/12 22:29:21] emnist-local-l1-vgg16 INFO: device: cuda
[03/12 22:29:21] emnist-local-l1-vgg16 INFO: num_classes: 47
[03/12 22:29:48] emnist-local-l1-vgg16 INFO: Pruning...
[03/12 22:29:55] emnist-local-l1-vgg16 INFO: VGG(
  (block0): Sequential(
    (0): Conv2d(1, 45, kernel_size=(3, 3), stride=(1, 1), padding=(1, 1))
    (1): BatchNorm2d(45, eps=1e-05, momentum=0.1, affine=True, track_running_stats=True)
    (2): ReLU(inplace=True)
    (3): Conv2d(45, 45, kernel_size=(3, 3), stride=(1, 1), padding=(1, 1))
    (4): BatchNorm2d(45, eps=1e-05, momentum=0.1, affine=True, track_running_stats=True)
  )
  (block1): Sequential(
    (0): Conv2d(45, 90, kernel_size=(3, 3), stride=(1, 1), padding=(1, 1))
    (1): BatchNorm2d(90, eps=1e-05, momentum=0.1, affine=True, track_running_stats=True)
    (2): ReLU(inplace=True)
    (3): Conv2d(90, 90, kernel_size=(3, 3), stride=(1, 1), padding=(1, 1))
    (4): BatchNorm2d(90, eps=1e-05, momentum=0.1, affine=True, track_running_stats=True)
  )
  (block2): Sequential(
    (0): Conv2d(90, 181, kernel_size=(3, 3), stride=(1, 1), padding=(1, 1))
    (1): BatchNorm2d(181, eps=1e-05, momentum=0.1, affine=True, track_running_stats=True)
    (2): ReLU(inplace=True)
    (3): Conv2d(181, 181, kernel_size=(3, 3), stride=(1, 1), padding=(1, 1))
    (4): BatchNorm2d(181, eps=1e-05, momentum=0.1, affine=True, track_running_stats=True)
    (5): ReLU(inplace=True)
    (6): Conv2d(181, 181, kernel_size=(3, 3), stride=(1, 1), padding=(1, 1))
    (7): BatchNorm2d(181, eps=1e-05, momentum=0.1, affine=True, track_running_stats=True)
  )
  (block3): Sequential(
    (0): Conv2d(181, 362, kernel_size=(3, 3), stride=(1, 1), padding=(1, 1))
    (1): BatchNorm2d(362, eps=1e-05, momentum=0.1, affine=True, track_running_stats=True)
    (2): ReLU(inplace=True)
    (3): Conv2d(362, 362, kernel_size=(3, 3), stride=(1, 1), padding=(1, 1))
    (4): BatchNorm2d(362, eps=1e-05, momentum=0.1, affine=True, track_running_stats=True)
    (5): ReLU(inplace=True)
    (6): Conv2d(362, 362, kernel_size=(3, 3), stride=(1, 1), padding=(1, 1))
    (7): BatchNorm2d(362, eps=1e-05, momentum=0.1, affine=True, track_running_stats=True)
  )
  (block4): Sequential(
    (0): Conv2d(362, 362, kernel_size=(3, 3), stride=(1, 1), padding=(1, 1))
    (1): BatchNorm2d(362, eps=1e-05, momentum=0.1, affine=True, track_running_stats=True)
    (2): ReLU(inplace=True)
    (3): Conv2d(362, 362, kernel_size=(3, 3), stride=(1, 1), padding=(1, 1))
    (4): BatchNorm2d(362, eps=1e-05, momentum=0.1, affine=True, track_running_stats=True)
    (5): ReLU(inplace=True)
    (6): Conv2d(362, 362, kernel_size=(3, 3), stride=(1, 1), padding=(1, 1))
    (7): BatchNorm2d(362, eps=1e-05, momentum=0.1, affine=True, track_running_stats=True)
  )
  (pool0): MaxPool2d(kernel_size=2, stride=2, padding=0, dilation=1, ceil_mode=False)
  (pool1): MaxPool2d(kernel_size=2, stride=2, padding=0, dilation=1, ceil_mode=False)
  (pool2): MaxPool2d(kernel_size=2, stride=2, padding=0, dilation=1, ceil_mode=False)
  (pool3): MaxPool2d(kernel_size=2, stride=2, padding=0, dilation=1, ceil_mode=False)
  (pool4): AdaptiveAvgPool2d(output_size=(1, 1))
  (classifier): Linear(in_features=362, out_features=47, bias=True)
)
[03/12 22:30:18] emnist-local-l1-vgg16 INFO: Params: 14.75 M => 7.38 M (50.03%)
[03/12 22:30:18] emnist-local-l1-vgg16 INFO: FLOPs: 19508.05 M => 9741.53 M (49.94%, 2.00X )
[03/12 22:30:18] emnist-local-l1-vgg16 INFO: Acc: 0.0212 => 0.0213
[03/12 22:30:18] emnist-local-l1-vgg16 INFO: Val Loss: 3.8501 => 3.8501
[03/12 22:30:18] emnist-local-l1-vgg16 INFO: Finetuning...
…
